Data/model_parameters1D3.pth (torch, 28538 bytes, 19 tensors)

input_layer.weight f4 [25, 2]
0	0x3e6dc9ae	0.23221466
1	0x3ee21253	0.44154605
2	0x3e097076	0.13421807
3	0x3ee3f035	0.445192
4	0xbdc811d5	-0.09769026
5	0x3eb03eef	0.34423015
6	0x3a3ac5b0	0.00071247946
7	0xbd7c8e05	-0.061658878
8	0x3dcc18b6	0.09965651
9	0x3db086c8	0.086194575
10	0xbc808a7e	-0.015691038
11	0xbea6cef2	-0.32579762
12	0xbe836563	-0.2566329
13	0xbeeb525a	-0.45961267
14	0x3db152b2	0.08658351
15	0xbccf6f1c	-0.025321536
16	0x3d988fcd	0.07449303
17	0x3ef883f4	0.48538172
18	0x3e9f8fee	0.31164497
19	0x3e883fd2	0.2661119
20	0x3eb1f196	0.34754628
21	0x3d9b8483	0.07593634
22	0x3ef57912	0.47943932
23	0xbf073965	-0.5282195
24	0x3da1835c	0.07886383
25	0x3e1c2d5d	0.1525168
26	0xb9f0a20f	-0.0004589711
27	0x3de4edc5	0.111781634
28	0x3e4e8bb5	0.20170482
29	0xbda47b41	-0.08031321
30	0x3debfb53	0.11522546
31	0xbd856642	-0.06513645
32	0x3e2b2499	0.1671318
33	0xbe988054	-0.29785407
34	0x3d8ab89a	0.06773491
35	0xbd831ebe	-0.06402348
36	0x3d9c49e6	0.076312825
37	0xbeb0aea2	-0.34508234
38	0xbe304444	-0.17213541
39	0x3eb924d5	0.36160913
40	0x3ee4a4e3	0.4465705
41	0x3c34fa40	0.011045992
42	0xbec69496	-0.38785237
43	0x3e2700f5	0.16308959
44	0x3d818c86	0.06325631
45	0x3deedcc5	0.11663202
46	0xbf13bdbb	-0.5771138
47	0xbd4d89e9	-0.05018035
48	0x3e81abb1	0.25326303
49	0x3ec6218c	0.3869747

input_layer.bias f4 [25]
0	0xbc9f8a07	-0.019474996
1	0x3d909874	0.07060328
2	0xbd11775f	-0.03551423
3	0x3bab6c38	0.0052314065
4	0x3e0bc700	0.13650131
5	0xbd574035	-0.052551467
6	0xbd0fe386	-0.035129093
7	0x3e0fc5be	0.14040276
8	0xbca7ac74	-0.020467974
9	0xbd3595b3	-0.044332217
10	0x3db2ed13	0.087366246
11	0x3d4c2886	0.049843334
12	0x3d6369a9	0.055520687
13	0x3db6081b	0.08888265
14	0x3ce7a20e	0.028275516
15	0x3ccce9bb	0.025013795
16	0x3cc31155	0.023811975
17	0xbcd55453	-0.026041185
18	0x3873d5bf	5.813478e-05
19	0xbd28fc41	-0.041256193
20	0xbc3ea5d9	-0.011636221
21	0xbd18deca	-0.037321843
22	0xbdcd30de	-0.10019086
23	0xbe4e4a00	-0.20145416
24	0xbc668f25	-0.014072214

resnet_blocks.0.fc1.weight f4 [25, 25]
0	0x3d413177	0.047166314
1	0x3e1a9c39	0.15098657
2	0x3e0c91f2	0.13727549
3	0xbc769f44	-0.01505262
4	0x3e153606	0.1457139
5	0xbd28b20c	-0.041185424
6	0x3dbd7d93	0.09252467
7	0x3e9be779	0.30450037
8	0x3eca46f3	0.39507255
9	0x3e35b181	0.17743494
10	0xbcdb07e7	-0.026737167
11	0x3e0d9dc0	0.13829708
12	0xbdc75d35	-0.09734575
13	0x3ecd372b	0.40081152
14	0x3d1e8dad	0.03870933
15	0xbd4453ac	-0.04793136
16	0x3dd9867e	0.106213555
17	0xbec1fe16	-0.37889165
18	0x3d53aceb	0.05167858
19	0xbda0a890	-0.07844651
20	0xbe0eef24	-0.13958412
21	0x3d871d92	0.06597437
22	0xbc5bfe59	-0.01342734
23	0xbda352ea	-0.07974799
24	0x3e08a395	0.13343652
25	0x3e95a759	0.2922924
26	0xbd814dba	-0.06313653
27	0xbe55fbf4	-0.20896894
28	0x3e63d46b	0.22249
29	0xbebae54b	-0.36503062
30	0xbe218d01	-0.15776445
31	0x3c347fef	0.01101683
32	0xbd733c7b	-0.05938385
33	0x3c54970b	0.012975465
34	0xbd6df7ba	-0.05809758
35	0xbcd36e68	-0.025809482
36	0x3da44580	0.080210686
37	0xbeabe9dc	-0.33576858
38	0x3e6cdeb8	0.23131835
39	0xbe8f505a	-0.2799099
40	0x3dc450a5	0.09585694
41	0x3ea16c97	0.3152816
42	0x3ebc8455	0.3681971
43	0xbd846003	-0.06463625
44	0xbe720f44	-0.23638636
45	0x3e693c3a	0.22776881
46	0xbe8a9fd4	-0.27075064
47	0x3d3ca234	0.046053126
48	0xbeafc31c	-0.34328544
49	0xbd4c269c	-0.04984151
50	0x3d2b81cb	0.041871827
51	0xbd956db5	-0.072963156
52	0xbe4a24f8	-0.19740665
53	0xbe1490fc	-0.14508432
54	0x3e715a48	0.23569596
55	0x3e4c3476	0.19941887
56	0xbe801991	-0.25019506
57	0x3e89c136	0.2690522
58	0xbe52d768	-0.20589983
59	0xbe467547	-0.19380675
60	0xbcde9786	-0.027171861
61	0x3d839098	0.064240634
62	0xbe7ba321	-0.24573947
63	0xbd8c9dd5	-0.068660416
64	0x3ea86b4c	0.3289436
65	0x3b261f05	0.002534808
66	0x3e975800	0.29559326
67	0x3ea92390	0.33034945
68	0x3e1e341c	0.15449566
69	0xbea8cad9	-0.3296726
70	0x3da5f1ea	0.08102782
71	0x3afcb671	0.0019280446
72	0xbdcaa3ed	-0.098945476
73	0xbee0dfd6	-0.43920773
74	0xbe74999b	-0.23886721
75	0x3ebb7023	0.3660899
76	0xbe8c4a6d	-0.27400532
77	0x3e657ffe	0.22412106
78	0x3e31e04a	0.17370716
79	0x3d0b26ae	0.033972435
80	0xbd9d4645	-0.076794185
81	0x3e4c0f69	0.19927754
82	0x3e92c357	0.28664657
83	0xbe97dbd4	-0.29659903
84	0xbe1969d6	-0.1498178
85	0xbe61a8eb	-0.22037093
86	0x3df55f48	0.11981064
87	0xbea60249	-0.32423618
88	0xbdeb0785	-0.114760436
89	0xbe3b5899	-0.18295516
90	0x3d1f48db	0.03888784
91	0x3cdf3486	0.027246725
92	0xbe8ce354	-0.27517188
93	0xbeb806fe	-0.35942835
94	0x3e633a6c	0.22190255
95	0xbc986469	-0.018602567
96	0x3d1712dd	0.036883224
97	0xbe4fc9a7	-0.20291768
98	0x3e8cb720	0.27483463
99	0x3eab32ef	0.33437297
100	0x3eabf177	0.3358266
101	0x3e8eeff3	0.27917442
102	0xbd3f9e6c	-0.046781942
103	0xbd8ba68d	-0.068188764
104	0x3ec2c637	0.3804185
105	0xbeaf1d6b	-0.34202132
106	0xbe116dd7	-0.14202057
107	0x3e8f0937	0.27936718
108	0xbd69ba23	-0.05706228
109	0xbe60da4f	-0.21958278
110	0xbd173ae9	-0.036921415
111	0x3e87d648	0.2653067
112	0x3c78233a	0.015145117
113	0x3eb8ea9a	0.36116487
114	0x3e8ad81b	0.27118
115	0xbe6d8cd5	-0.23198254
116	0xbe5c2b55	-0.21500905
117	0xbc32bdef	-0.0109095415
118	0xbead62f0	-0.33864546
119	0x3de840fe	0.11340521
120	0xbe5ba4fc	-0.21449655
121	0xbe4f7cf8	-0.20262516
122	0x3e78ac6a	0.24284521
123	0x3e1659e6	0.14682731
124	0x3e8a7558	0.2704265
125	0x3dfc91ab	0.123324715
126	0xbe303578	-0.17207897
127	0xbe28c2c7	-0.16480552
128	0xbea0da98	-0.31416774
129	0xbdb12750	-0.086500764
130	0xbd82843f	-0.0637288
131	0x3afee87b	0.0019447947
132	0xbd04a36f	-0.032382425
133	0xbe853fd0	-0.26025248
134	0xbe250d84	-0.16118437
135	0x3be87ce6	0.007094967
136	0xbeb42aba	-0.35188848
137	0xbe574599	-0.21022643
138	0xbe8a7050	-0.27038813
139	0xbe21dedd	-0.15807672
140	0xbd9cb715	-0.076521076
141	0xbebe6ab9	-0.37190798
142	0xbdedd452	-0.116127625
143	0x3e49a303	0.1969109
144	0x3e75660b	0.23964708
145	0x3c110b73	0.008852827
146	0x3e56a3a1	0.20960857
147	0x3ddb767d	0.10715959
148	0x3dea75b7	0.114482336
149	0x3e6432f3	0.2228506
150	0x3e21565c	0.157556
151	0x3def26b2	0.116773024
152	0xbea738d4	-0.32660544
153	0x3ddec23a	0.108768895
154	0xbe437b2e	-0.19089958
155	0x3da8ee78	0.08248609
156	0x3e897d57	0.2685344
157	0x3e5bab30	0.21452022
158	0x3afa5ac5	0.0019100538
159	0x3e581838	0.21102989
160	0x3bbe1413	0.005800733
161	0xbd86e6be	-0.06586979
162	0x3e6c931e	0.23102996
163	0x3e41d0b2	0.18927267
164	0x3e63bf31	0.22240902
165	0x3ea8442b	0.32864508
166	0x3e3d577c	0.18490404
167	0x3d6de2be	0.058077566
168	0xbe1bfa1c	-0.15232128
169	0x3d75cd2e	0.060010128
170	0xbbacbe9d	-0.0052717463
171	0x3e8fb5e7	0.28068468
172	0xbbbc3848	-0.005744014
173	0xbec8f0d3	-0.39246234
174	0x3d11450b	0.035466235
175	0x3e74eea9	0.23919167
176	0x3e1d77f2	0.15377787
177	0x3e868733	0.26275024
178	0xbd91865e	-0.07105707
179	0xbd753159	-0.059861515
180	0x3e7d2053	0.24719362
181	0xbd6d7e67	-0.057981875
182	0x3e1bd86c	0.15219277
183	0xbdc14735	-0.0943741
184	0x3bb04bc0	0.005380124
185	0x3ea1ab76	0.31576127
186	0x3e1977d2	0.14987114
187	0xbe055d71	-0.13023926
188	0xbd2bc617	-0.04193696
189	0xbebec4c1	-0.37259486
190	0x3e4953ed	0.19660921
191	0x3e912946	0.28351802
192	0xbe567511	-0.20943095
193	0xbd92ab49	-0.07161576
194	0x3dc316c5	0.09525827
195	0x3ddff16a	0.10934718
196	0x3e920d09	0.2852557
197	0xbe914a7f	-0.28377149
198	0xbe0323be	-0.12806603
199	0x3e6be2fd	0.23035808
200	0xbe5485fb	-0.20754234
201	0xbd9f1a57	-0.07768696
202	0xbe1bbaec	-0.15208024
203	0x3e8eae44	0.2786733
204	0x3de90983	0.11378767
205	0xbdcb6b92	-0.09932627
206	0x3e7a6022	0.24450734
207	0xbd918621	-0.07105661
208	0xbec1a83d	-0.37823668
209	0xbe1df646	-0.15425977
210	0xbb660636	-0.0035098917
211	0x3e8b13f3	0.27163658
212	0xbd8057dd	-0.062667586
213	0x3e7131e2	0.23554185
214	0xbe01f641	-0.12691595
215	0xbde54f87	-0.11196809
216	0xbe99e629	-0.3005841
217	0xbda7fec0	-0.082028866
218	0x3e0c40d7	0.1369661
219	0x3d21b65c	0.039480552
220	0x3ea32ff3	0.3187252
221	0x3e4d1bc2	0.2003012
222	0xbd99c7da	-0.07508822
223	0x3e036c68	0.12834322
224	0x3e3e2a15	0.1857074
225	0x3d48a508	0.04898551
226	0xbdb90b56	-0.09035365
227	0x3eabfb6f	0.33590266
228	0x3e36e6a9	0.17861427
229	0x3ea3f7fa	0.3202513
230	0xbe53e6be	-0.2069349
231	0xbd9189cc	-0.07106361
232	0x3d3bd57e	0.0458579
233	0x3e3bfbfc	0.18357843
234	0x3d09118d	0.033464003
235	0x39e96579	0.00044516826
236	0x3cabaf2b	0.02095755
237	0x3e0d2792	0.13784626
238	0x3e71f4eb	0.23628585
239	0xbe59022f	-0.21192239
240	0x3e6ea892	0.23306492
241	0xbc458e20	-0.012057811
242	0xbe0c1331	-0.13679196
243	0xbea5b1ae	-0.3236212
244	0x3e3b1284	0.18268782
245	0xbe91bf57	-0.28466293
246	0x3e8eb6b1	0.27873757
247	0x3e997543	0.29972276
248	0xbe242cfb	-0.16032784
249	0x3e511927	0.20419751
250	0x3eaa207d	0.33227912
251	0xbd3c7955	-0.04601415
252	0xbe047caf	-0.12938188
253	0xbeba8cef	-0.3643565
254	0xbdf44921	-0.11928011
255	0x3e7fc354	0.24976856

resnet_blocks.0.fc1.bias f4 [25]
0	0x3d956478	0.072945535
1	0x3d44ddb9	0.048063014
2	0x3dc7a35a	0.09747954
3	0xbde87f1a	-0.11352368
4	0x3d9d8955	0.0769221
5	0x3c623f8b	0.013809095
6	0x3da39830	0.07988012
7	0x3d93bb3d	0.07213447
8	0x3d31d722	0.043418057
9	0xbced2938	-0.028950319
10	0x3dc31151	0.09524787
11	0xbd1564c0	-0.036473036
12	0x3d04aa64	0.03238906
13	0x3da04f13	0.07827582
14	0xbc2aed94	-0.01043262
15	0x3c6ae4cd	0.014336777
16	0x3d54ee4b	0.051985066
17	0x3d27401c	0.040832624
18	0x3a77dafc	0.00094549335
19	0x3d8f7346	0.070044085
20	0x3cc241bf	0.02371299
21	0xbd0d7137	-0.0345318
22	0xbe0c7c47	-0.13719283
23	0x3de607ba	0.112319425
24	0x3e025e9d	0.12731405

resnet_blocks.0.fc2.weight f4 [25, 25]
0	0x3eac54eb	0.33658537
1	0x3dd57bef	0.10424029
2	0x3e947ffd	0.29003897
3	0xbe641fb1	-0.22277714
4	0xbe14c1ec	-0.145271
5	0x3e60a610	0.21938348
6	0x3e8b5055	0.27209726
7	0xbe3afd78	-0.18260753
8	0xbeb21bd6	-0.34786862
9	0x3e928f66	0.2862503
10	0x3e3bbd8d	0.18334027
11	0x3c4efb11	0.012633101
12	0xbe65ec17	-0.22453342
13	0x3e759f05	0.23986442
14	0x3d211f86	0.039336704
15	0xbddcc11f	-0.107790224
16	0xbd51ffed	-0.05126946
17	0x3d3b8a89	0.045786414
18	0xbeb198af	-0.346868
19	0xbe88c46d	-0.2671236
20	0xbe8eca36	-0.2788865
21	0xbe9ab7bb	-0.302183
22	0xbd684c54	-0.056713417
23	0x3c9912d5	0.018685738
24	0x3e9a446a	0.3013032
25	0x3deed1db	0.116611205
26	0xbe2a1eae	-0.16613266
27	0xbc808f1e	-0.015693244
28	0xbda997b2	-0.08280887
29	0x3ea05421	0.31314185
30	0xbda3e95b	-0.080034934
31	0x3ea6166a	0.32438976
32	0xbd9f2de5	-0.077724256
33	0xbe79ac6d	-0.24382181
34	0x3b542ea4	0.0032376433
35	0x3e49cee2	0.19707826
36	0x3defc838	0.117081106
37	0xbe9e2b98	-0.30892634
38	0x3e3422f8	0.17591465
39	0xbe50e9f1	-0.20401742
40	0x3dc212ee	0.09476267
41	0x3e822a17	0.25422737
42	0x3d93c37c	0.0721502
43	0x3b1a764f	0.0023569053
44	0x3e61e5c5	0.22060306
45	0xbe637332	-0.22211912
46	0xbe866505	-0.26248947
47	0xbd3ae537	-0.045628753
48	0x3de40785	0.11134247
49	0x3de634b6	0.112405226
50	0x3e75a944	0.23990351
51	0xbe52a0ac	-0.20569104
52	0xbe8802ce	-0.2656464
53	0x3d325319	0.04353628
54	0x3e572c94	0.21013099
55	0x3e9605b7	0.29301235
56	0xbc117059	-0.008876883
57	0x3e989dee	0.2980799
58	0xbea3376c	-0.3187822
59	0xbe828596	-0.25492543
60	0x3ebb10fc	0.36536396
61	0xbdfd3135	-0.12362901
62	0xbebc80c5	-0.36816993
63	0xbdf9c270	-0.12195289
64	0xbe93e17c	-0.28882968
65	0x3dfca240	0.12335634
66	0xbce74a35	-0.028233627
67	0x3e2d8efa	0.16949072
68	0xbc87cb79	-0.016576516
69	0x3d8c961b	0.06864568
70	0x3e836cbf	0.25668904
71	0xbe9ebd85	-0.31003967
72	0xbcc1d74f	-0.023662237
73	0x3eaad7c5	0.33367744
74	0xbebcc4c9	-0.36868885
75	0xbccc2a30	-0.02492246
76	0xbd60acc4	-0.054852262
77	0xbd4b248e	-0.04959541
78	0xbdeb4943	-0.11488583
79	0x3ec71698	0.38884425
80	0x3e359bbf	0.17735194
81	0x3d746b54	0.05967267
82	0x3e64738e	0.22309706
83	0x3e82fdc3	0.2558423
84	0xbd891b60	-0.066946745
85	0xbafd95fc	-0.0019347067
86	0x3e2fb35b	0.17158262
87	0xbee72fed	-0.45153752
88	0x3d95c763	0.073134206
89	0x3eaf32bc	0.34218395
90	0xbe13a693	-0.14419012
91	0xbc6be64f	-0.014398172
92	0xbc94f43a	-0.018182863
93	0x3eaaf6a5	0.333913
94	0xbcc7db05	-0.024396429
95	0xbe1f4435	-0.15553363
96	0x3e8b4d9a	0.27207643
97	0xbe8d2823	-0.27569684
98	0xbdd93e80	-0.10607624
99	0xbe6dbdab	-0.23216884
100	0x3ea92110	0.33033037
101	0x3db3d8ae	0.08781563
102	0x3e3ae58f	0.18251632
103	0xbe6f8eb7	-0.23394285
104	0x3e93113e	0.28724092
105	0xbd4b7f53	-0.049681973
106	0x3e13deaa	0.14440408
107	0x3d2cf6ba	0.042227484
108	0xbeae7690	-0.3407483
109	0xbd6ad6b9	-0.05733368
110	0x3d60d938	0.054894656
111	0xbea21145	-0.316538
112	0xbeaad245	-0.33363548
113	0x3e812fcb	0.25231776
114	0x3e8a71c1	0.27039912
115	0xbe5b9650	-0.21444058
116	0x3c4cf771	0.0125101665
117	0xbe186cc0	-0.14885235
118	0x3df8fd6d	0.12157712
119	0xbd6170ba	-0.055039145
120	0x3e0a1be9	0.1348721
121	0xbe8a233c	-0.26980007
122	0xbe4bb926	-0.19894847
123	0x3e5d9216	0.21637759
124	0xbe17229b	-0.14759295
125	0xbbe004b7	-0.0068364996
126	0xbe4998e0	-0.19687223
127	0xbe204eb4	-0.15655023
128	0x3dddbe86	0.10827355
129	0x3df2529d	0.118321635
130	0x3df71d86	0.12066178
131	0xbd125c80	-0.035732746
132	0xbd832e79	-0.06405348
133	0x3ea376af	0.31926486
134	0x3dabb3df	0.08383917
135	0xbe7ef184	-0.24896818
136	0x3e7a048b	0.24415796
137	0xbe46b736	-0.19405827
138	0xbd064041	-0.03277612
139	0x3c4a30ff	0.012340783
140	0xbe1a4cc0	-0.1506834
141	0x3e39423b	0.18091671
142	0xbe93ea47	-0.28889677
143	0xbd83c6be	-0.064343914
144	0xbdef0323	-0.1167052
145	0xbe9ff2a3	-0.31239805
146	0x3e48c8a5	0.1960779
147	0x3db6ded9	0.089292236
148	0xbe25327c	-0.1613254
149	0x3df01849	0.11723382
150	0xbee045e6	-0.43803328
151	0x3ea687ac	0.32525384
152	0x3e4c0c85	0.19926651
153	0x3dcc7345	0.099829234
154	0x3e2cb6dd	0.16866632
155	0x3e442b56	0.19157156
156	0xbd8eb151	-0.06967414
157	0xbd5ec213	-0.054384302
158	0x3e855bde	0.26046652
159	0x3e895bc4	0.26827824
160	0x3c2c7d5a	0.010527933
161	0xbd9fb938	-0.077989995
162	0x3e071d71	0.13194825
163	0x3c9f7026	0.019462656
164	0xbd5c1cb4	-0.05373831
165	0xbe318f6d	-0.17339869
166	0xbe9b1017	-0.30285713
167	0x3e97c382	0.29641348
168	0xbe96e7ad	-0.2947363
169	0x3d9aff04	0.075681716
170	0xbe55522e	-0.2083213
171	0xbe6b8f69	-0.23003925
172	0x3dbbb51c	0.09165403
173	0xbe33c7e5	-0.17556722
174	0xbd9fc278	-0.07800764
175	0x3eb4c5da	0.353072
176	0xbe8ef4e2	-0.27921206
177	0xbda480ca	-0.08032377
178	0x3d9946bb	0.07484194
179	0x3d399a4d	0.04531317
180	0x3e37a990	0.17935777
181	0x3ea4fb1f	0.3222284
182	0x3ef93e14	0.48680174
183	0x3db17cae	0.08666359
184	0x3ed5c8ca	0.41754752
185	0x3e1e56b3	0.1546276
186	0xbd1bef25	-0.038069863
187	0xbed19cfe	-0.40940088
188	0x3ec52226	0.38502616
189	0x3dad8ce8	0.08474141
190	0xba829bb6	-0.0009964618
191	0x3d204990	0.039132655
192	0x3ec64407	0.38723776
193	0x3e065574	0.13118535
194	0x3eab53e6	0.33462447
195	0xbe3286c7	-0.17434226
196	0x3dae49ea	0.08510192
197	0xbeeebfb2	-0.46630627
198	0xba3ed2a2	-0.00072793115
199	0xbeef3c02	-0.4672547
200	0x3dfe10a1	0.124055155
201	0xbe90e86a	-0.28302318
202	0xbe8066da	-0.2507847
203	0xbc3641dd	-0.0111241015
204	0xbd84ed4b	-0.064905725
205	0x3e04cf51	0.1296971
206	0xbec2caf4	-0.38045466
207	0xbd600b9b	-0.054698568
208	0xbe57cce6	-0.21074256
209	0x3de26784	0.110549
210	0xbe553a27	-0.20822965
211	0x3d87af76	0.066252634
212	0x3e9bf100	0.30457306
213	0x3e094859	0.13406505
214	0x3ddea473	0.1087121
215	0xbe4b91b4	-0.198798
216	0x3dc21bec	0.09477982
217	0xbd1450a9	-0.036209736
218	0x3e6dabd9	0.23210086
219	0xbe75e6aa	-0.24013773
220	0xbe638717	-0.22219501
221	0xbd04d5da	-0.032430507
222	0x3d78286c	0.060585424
223	0x3b6c355f	0.0036042554
224	0xbe891d3d	-0.2678012
225	0x3e3c60c3	0.18396287
226	0xbe92fdb1	-0.28709176
227	0xbe5cd3df	-0.21565197
228	0x3e2f89ea	0.17142454
229	0x3e99755b	0.29972348
230	0xbce7bd89	-0.02828862
231	0xbe9933ef	-0.29922435
232	0x3d407460	0.046985984
233	0xbe21eead	-0.15813704
234	0xbe2bc476	-0.16774163
235	0x3e88aff5	0.26696745
236	0x3dff6fbf	0.12472486
237	0xbe6aef5a	-0.22942868
238	0x3eaa7a8b	0.33296618
239	0x3e700f59	0.23443355
240	0xbda4356f	-0.08018004
241	0x3eb04ea4	0.34434998
242	0x3e9a799a	0.301709
243	0x3eaab315	0.33339754
244	0x3dff9a36	0.12480585
245	0xbea45c86	-0.3210184
246	0xbe2df031	-0.16986157
247	0x3e9c313d	0.30506316
248	0x3e35856f	0.17726682
249	0x3e87d713	0.26531276
250	0xbe874401	-0.2641907
251	0x3d324fb4	0.043533042
252	0x3e679bf2	0.22618082
253	0x3dfdfc78	0.1240167
254	0x3d902fa3	0.07040336
255	0x3e3ef620	0.18648577

resnet_blocks.0.fc2.bias f4 [25]
0	0xbdbe55f1	-0.09293736
1	0x3d93ea61	0.072224386
2	0x3d398999	0.04529724
3	0xbcbdded4	-0.023177542
4	0x3e03a205	0.12854774
5	0xbcfbd864	-0.030742832
6	0x3a8b379d	0.0010621432
7	0x3e32c40f	0.17457603
8	0xbcf0a118	-0.02937369
9	0x3c8ce022	0.017196719
10	0x3e0667e5	0.1312557
11	0x3d21fabf	0.03954577
12	0x3da471f3	0.080295466
13	0x3c7d1915	0.015447875
14	0x3d1a79a1	0.03771365
15	0x3c874403	0.016511923
16	0x3ba6e024	0.0050926376
17	0xbc3b9a2f	-0.011450334
18	0x3dd398ff	0.10331916
19	0x3c0b72d8	0.008511268
20	0x3c6ca969	0.014444687
21	0x3d2849b5	0.041085918
22	0xbe0864f8	-0.13319767
23	0xbc8ec41e	-0.0174275
24	0xbda04b9f	-0.078269236

resnet_blocks.1.fc1.weight f4 [25, 25]
0	0x3e871a7e	0.263874
1	0xbd033f61	-0.032042865
2	0x3e9ffcd2	0.31247574
3	0xbc79df99	-0.015251064
4	0x3e221def	0.15831731
5	0xbe90f9eb	-0.28315672
6	0xbc56b038	-0.013103537
7	0xbd77d6c5	-0.060507555
8	0xbe04405a	-0.12915173
9	0xbe1af21b	-0.15131418
10	0x3e9ac03c	0.30224788
11	0xbe9b61ec	-0.30348146
12	0x3e32bffd	0.1745605
13	0xbe5f0728	-0.21780074
14	0x3cc9213c	0.02455198
15	0x3d1548ce	0.036446385
16	0x3dd95322	0.106115595
17	0xbded0dc1	-0.11574889
18	0xbebe28d9	-0.3714054
19	0x3eb386cd	0.35063782
20	0xbdd87ee0	-0.105710745
21	0x3e4ecd5c	0.20195526
22	0x3e667e2a	0.22509065
23	0xbedb4230	-0.42823935
24	0xbda19d84	-0.07891372
25	0xbe8e9065	-0.2784454
26	0xbeaf9216	-0.34291142
27	0x3e046e13	0.12932615
28	0x3e5cb545	0.21553524
29	0xbe14a395	-0.14515527
30	0xbe653f3a	-0.223874
31	0xbe57697c	-0.21036333
32	0xbe7e639a	-0.24842682
33	0xbc9561c9	-0.018235104
34	0x3d247a08	0.04015544
35	0x3c8e7f4d	0.017394686
36	0xbd07641b	-0.033054452
37	0xbde45c70	-0.111504436
38	0x3d902d88	0.070399344
39	0x3cf32aef	0.029683558
40	0x3c0ec09b	0.008712913
41	0x3da903a8	0.082526505
42	0xbe1b296f	-0.15152524
43	0x3e5878a9	0.21139778
44	0xbebae543	-0.36503038
45	0xbdc50113	-0.096193455
46	0xbdb452d5	-0.088048615
47	0xbea2db37	-0.31807873
48	0xbd1df7de	-0.038566463
49	0xbddd3e16	-0.108028576
50	0xbd369056	-0.044571243
51	0xbe0cdd15	-0.13756211
52	0x3d10efbb	0.035384875
53	0xbdf77ab0	-0.12083948
54	0xbdc0009b	-0.093751155
55	0x3d73627f	0.059420105
56	0x3e8dbf99	0.2768524
57	0x3db5002e	0.08837925
58	0x3e0b4d00	0.13603592
59	0x3eaac86f	0.33356044
60	0x3e2ec904	0.17068869
61	0xbe97d791	-0.29656652
62	0xbdb6f44d	-0.089333154
63	0x3e27d623	0.1639028
64	0x3e460c12	0.19340542
65	0xbe85211c	-0.26001823
66	0x3e543bdb	0.20725958
67	0x3deb031d	0.11475203
68	0x3e6fc641	0.23415472
69	0xbeb0021a	-0.34376603
70	0xbd3e3987	-0.04644158
71	0xbdd95926	-0.10612707
72	0x3d1fbe3b	0.038999777
73	0x3e3f9fb9	0.18713273
74	0x3dddf5e8	0.108379185
75	0xbd91562c	-0.07096514
76	0x3dcbcb8a	0.09950931
77	0x3e24d49c	0.16096729
78	0x3e3e59e2	0.18588975
79	0x3e1033ad	0.14082213
80	0xbe36a9bd	-0.17838188
81	0xbe891e45	-0.26780906
82	0x3e74b95f	0.23898838
83	0x3e0621d4	0.13098842
84	0xbd86cb39	-0.065817304
85	0x3e912c55	0.28354135
86	0xbea0b030	-0.3138442
87	0xbe2b0b8f	-0.16703628
88	0xbe1fdb9f	-0.15611123
89	0xbe87c6ef	-0.26518962
90	0xbe036cfc	-0.12834543
91	0x3c2c5720	0.010518819
92	0xbe33b5cb	-0.17549817
93	0x3d5ca1a0	0.053865075
94	0x3c7a090a	0.015260944
95	0x3cf83056	0.030296486
96	0x3d1d32ea	0.038378634
97	0x3e0e291c	0.1388287
98	0x3e634f41	0.22198202
99	0xbd1eb1c0	-0.038743734
100	0x3e6682cf	0.22510837
101	0xbe19693f	-0.14981554
102	0xbe89dda5	-0.26926914
103	0xbea28b29	-0.31746796
104	0x3db5698c	0.08858022
105	0x3d9536b4	0.072858244
106	0x3e50915c	0.2036795
107	0xbe7114be	-0.23543069
108	0xbeacd2da	-0.33754617
109	0xbda69765	-0.08134345
110	0x3e9d282b	0.30694708
111	0xbc96914d	-0.018379832
112	0xbe20022d	-0.1562583
113	0x3d1e8e77	0.038710084
114	0xbdc6e3b1	-0.097113974
115	0xbd902b5c	-0.0703952
116	0xbda0b223	-0.07846477
117	0xbe744760	-0.23855352
118	0x3ea4f39a	0.32217103
119	0xbe557cf7	-0.20848452
120	0xbe773f9c	-0.24145359
121	0xbe267847	-0.1625682
122	0xbcbfd0e4	-0.023415036
123	0xbda8a170	-0.08233917
124	0x3cf64472	0.030061934
125	0xbe5307d1	-0.2060845
126	0xbe8790d6	-0.2647769
127	0x3ece8ac4	0.40340245
128	0x3e354db5	0.17705424
129	0x3e8fdbe4	0.2809745
130	0xbe4ce5cd	-0.20009537
131	0x3d8e2c6d	0.06942067
132	0x3ec8d3b0	0.39224005
133	0xbe50fa9e	-0.20408103
134	0xbcd74ba1	-0.02628118
135	0x3e4cc035	0.19995196
136	0xbece2555	-0.40262857
137	0xbe3d1571	-0.1846521
138	0x3e4f1396	0.20222315
139	0x3e35543f	0.17707919
140	0xbde471cf	-0.1115452
141	0x3e8f1d5c	0.27952087
142	0x3e9d5154	0.3072611
143	0xbec4afcc	-0.38415372
144	0x3e588d01	0.21147539
145	0x3eb41650	0.35173273
146	0xbe477456	-0.19477972
147	0xbe626c19	-0.22111548
148	0xbd7082dc	-0.058718547
149	0x3eb0d666	0.34538573
150	0xbd9005d7	-0.07032364
151	0x3e29b88f	0.1657431
152	0x3eb39aff	0.3507919
153	0xbe2a2ce3	-0.16618685
154	0x3ed6bb8d	0.41939965
155	0xbe5acbc1	-0.21366788
156	0xbeea1b51	-0.45723966
157	0x3e80c5b9	0.2515085
158	0x3e52033f	0.20509051
159	0xbe76eb38	-0.24113166
160	0xbddcac73	-0.107750796
161	0xbeb86e2e	-0.3602156
162	0x3ea3c0a5	0.31982914
163	0x3de72ab7	0.11287444
164	0x3e729fa1	0.23693706
165	0xbd0c6190	-0.03427273
166	0xbea2e58e	-0.3181576
167	0xbe866420	-0.26248264
168	0xbee26cff	-0.44223782
169	0x3d176d6f	0.0369696
170	0xbe275e82	-0.16344646
171	0xbebf088f	-0.37311217
172	0xbd6401fe	-0.055665962
173	0xbeafbd4b	-0.34324107
174	0xbe405cee	-0.1878545
175	0xbe143570	-0.1447351
176	0x3e6ce695	0.23134835
177	0x3d856526	0.06513433
178	0xbea41faf	-0.32055423
179	0x3e7fe8cf	0.24991153
180	0x3dc05c44	0.09392598
181	0x3b4089bf	0.0029378978
182	0xbd5b5fcc	-0.053558156
183	0x3e50ef42	0.2040377
184	0xbe49c193	-0.19702749
185	0x3d8c58ad	0.06852851
186	0x3ebf21cf	0.3733048
187	0x3e0994ad	0.13435622
188	0xbe103419	-0.14082374
189	0x3d57fc9b	0.052731138
190	0xbe7c379a	-0.24630585
191	0xbe37f613	-0.17964964
192	0x3dacb51a	0.0843298
193	0xbe112958	-0.14175928
194	0x3d342cd4	0.043988064
195	0x3e5674f4	0.20943052
196	0x3e65c818	0.22439611
197	0x39b7f2e5	0.0003508545
198	0xbe8e76df	-0.27825066
199	0xbeb68186	-0.35645694
200	0xbe89b02c	-0.2689222
201	0x3b819859	0.003954929
202	0xbe607e91	-0.21923281
203	0x3e1bd328	0.15217268
204	0x3bee6d0b	0.0072761825
205	0xbe0463f2	-0.12928751
206	0xbe7d4c5f	-0.24736165
207	0x3e78c193	0.24292593
208	0xbd57920c	-0.052629516
209	0x3ea506b2	0.3223167
210	0x3e20ef07	0.15716182
211	0x3e2469e6	0.16056022
212	0x3d2e2bb5	0.04252215
213	0x3dadfac9	0.08495099
214	0x3e652911	0.22378947
215	0x3e764730	0.24050593
216	0xbc8152ac	-0.015786491
217	0xbb97d44f	-0.0046334635
218	0xbdba6242	-0.091007724
219	0x3e2a7a2a	0.16648164
220	0xbdddb68c	-0.10825834
221	0x3e44927d	0.19196506
222	0xbe62f0c4	-0.22162157
223	0x3dda0f81	0.106474884
224	0x3e3ed60a	0.18636337
225	0x3e9612c5	0.29311195
226	0x3e319a9a	0.17344132
227	0xbe889630	-0.26677084
228	0x3e8ef838	0.2792375
229	0x3e9af914	0.30268157
230	0x3c8cc1b0	0.017182201
231	0x3ea2ccbb	0.31796822
232	0xbe5afd4f	-0.21385692
233	0x3e8b8b35	0.27254644
234	0x3ea98e83	0.3311654
235	0xbe6c7176	-0.23090157
236	0xbe289b96	-0.16465601
237	0x3c676f3e	0.014125643
238	0xbbca9392	-0.0061821425
239	0xbe022eb9	-0.12713136
240	0xbe76602a	-0.24060121
241	0xbe2d6b81	-0.1693554
242	0x3d5296b2	0.051413245
243	0xbe2d54dc	-0.16926903
244	0xbda38a47	-0.07985359
245	0x3ba0304b	0.0048885695
246	0xbd19ed7a	-0.03757999
247	0x3ddd33b0	0.10800874
248	0x3d977465	0.07395247
249	0x3e004d83	0.12529568
250	0xbd97aef2	-0.07406415
251	0xbeb8371e	-0.3597955
252	0xbcbfa1ba	-0.023392547
253	0x3e19ebf7	0.1503142
254	0xbdac9141	-0.084261425
255	0xbe0396f9	-0.1285056

resnet_blocks.1.fc1.bias f4 [25]
0	0x3d678c3f	0.056530233
1	0x3d17762a	0.036977924
2	0xbd0a227a	-0.033724286
3	0x3d8bb0e1	0.06820846
4	0x3d62b787	0.055350807
5	0xbd0e2824	-0.03470625
6	0x3e2a5bf1	0.16636635
7	0xbd989395	-0.07450024
8	0x3d0de795	0.034644682
9	0x3d2256e3	0.039633643
10	0xbcf35118	-0.029701754
11	0x3c878a54	0.016545452
12	0x3c8a06ef	0.01684901
13	0x3c6ddef2	0.014518486
14	0x3d2f1c54	0.042751625
15	0x3d7ebd72	0.062192388
16	0xbcc0af64	-0.023521133
17	0xbb5195e0	-0.0031980202
18	0xbde0e2fb	-0.10980793
19	0xbd9c8e7e	-0.07644366
20	0x3def7687	0.11692529
21	0xbd6adc04	-0.05733873
22	0xbcbdbb2d	-0.023160541
23	0xbcfa22ff	-0.030534266
24	0x3d2596f2	0.040427156

resnet_blocks.1.fc2.weight f4 [25, 25]
0	0x3ebaf5ed	0.3651575
1	0xbe36eb93	-0.17863302
2	0x3e84322b	0.25819525
3	0x3d027d71	0.03185791
4	0x3c730001	0.014831544
5	0xbe23fada	-0.16013661
6	0x3e89658f	0.26835296
7	0x3e57a61e	0.21059462
8	0xbe627282	-0.22113994
9	0x3ec0349e	0.37540144
10	0x3cad20d4	0.021133818
11	0xbd524804	-0.05133821
12	0x3d07522b	0.033037346
13	0x3d5f6e98	0.05454883
14	0x3e71ca8f	0.23612426
15	0x3d8f90ed	0.07010064
16	0xbe0a1025	-0.13482721
17	0x3dc1b1a6	0.09457712
18	0x3e8d3aee	0.27584022
19	0x3e453a22	0.19260457
20	0xbd9bf75a	-0.07615538
21	0xbdcb77fb	-0.09934994
22	0x3dd35b8c	0.103201956
23	0xbe533458	-0.20625436
24	0xbec9a92d	-0.39386883
25	0x3eb7d77f	0.35906598
26	0xbd261fa3	-0.040557515
27	0xbd240cf6	-0.040051423
28	0x3ea85204	0.32875073
29	0xbea7770c	-0.32708013
30	0xbe9181ba	-0.28419286
31	0xbdbe8490	-0.09302628
32	0x3ba93225	0.0051634484
33	0x3e9a5604	0.3014375
34	0x3e44a23f	0.19202517
35	0x3e106c2b	0.14103763
36	0xbe18a6b7	-0.14907347
37	0xbc6b2d87	-0.014354116
38	0xbe8752c0	-0.2643032
39	0xbe52329d	-0.2052712
40	0x3e36ee58	0.17864358
41	0xbe6a45f6	-0.2287825
42	0x3c943f54	0.018096603
43	0xbeb509ed	-0.35359135
44	0xbe3b3479	-0.18281735
45	0x3ed246b9	0.41069582
46	0xbd91c285	-0.0711718
47	0xbe89b0ea	-0.26892787
48	0xbde8287b	-0.11335846
49	0xbe920c38	-0.28524947
50	0x3e336133	0.17517547
51	0xbe288ef1	-0.16460778
52	0x3e2acba9	0.16679253
53	0xbd9273a2	-0.071509615
54	0xbd3cee37	-0.046125617
55	0x3ebb165f	0.36540505
56	0xbd98ff03	-0.074705146
57	0xbdcd56cb	-0.1002632
58	0x3eb9998e	0.36249965
59	0xbe411be4	-0.18858296
60	0x3d83d472	0.06437005
61	0xbea87902	-0.32904822
62	0xbdfe2909	-0.124101706
63	0x3e59929b	0.21247332
64	0x3e92b1c4	0.2865125
65	0x3e768b5f	0.24076603
66	0x3e3b02cc	0.18262786
67	0x3dc3102b	0.09524568
68	0x3e51417e	0.2043514
69	0xbdcce239	-0.10004086
70	0x3cdf28c8	0.027241126
71	0xbe83509f	-0.25647447
72	0xbdf1b62c	-0.11802325
73	0x3e65987a	0.22421446
74	0x3ea3ae7b	0.31969056
75	0x3eb85954	0.36005652
76	0xbc63160a	-0.013860235
77	0x3b086d97	0.0020817274
78	0x3e0bec54	0.13664371
79	0xbe809c50	-0.25119257
80	0x3eb97b46	0.36226863
81	0xbde72ae6	-0.11287479
82	0x3e79815f	0.24365757
83	0x3e9622cd	0.29323426
84	0xbe35be45	-0.17748363
85	0xbcdc8ae6	-0.0269217
86	0x3b54048f	0.003235135
87	0xbe0ee1ad	-0.13953276
88	0xbd04e232	-0.03244228
89	0x3cddc1c7	0.02706994
90	0xbdafa57f	-0.08576488
91	0x3e1bbf9d	0.15209813
92	0x3d1a3329	0.037646446
93	0x3dc700fc	0.09716985
94	0x3d6b0ee0	0.057387233
95	0x3bfd2806	0.0077257184
96	0xbd423136	-0.047410212
97	0xbe3e6696	-0.18593821
98	0xbe99ec58	-0.30063128
99	0xbee24200	-0.4419098
100	0xbaea15bb	-0.0017859259
101	0xbc372a32	-0.011179494
102	0xbeb3b920	-0.35102177
103	0xbdba8285	-0.09106926
104	0xbd955328	-0.072912514
105	0xbed82397	-0.42214653
106	0x3ea8ce70	0.3297
107	0xbe17d7bf	-0.14828394
108	0xbe0c7d05	-0.13719566
109	0xbe3d424e	-0.18482324
110	0xbe7ba534	-0.24574739
111	0xbe23022b	-0.15918796
112	0x3e90df10	0.28295183
113	0x3e23954d	0.15974922
114	0x3e248c00	0.16069031
115	0x3eae6030	0.3405776
116	0xbec1bbbf	-0.3783855
117	0xbe051b64	-0.1299873
118	0xbc35a251	-0.0110860625
119	0xbdd210c1	-0.10257102
120	0xbeb1aa08	-0.34700036
121	0xbe4ae823	-0.19815116
122	0xbe1db408	-0.15400708
123	0x3c86a35c	0.016435318
124	0x3e84553e	0.25846285
125	0xbea1caf1	-0.31600145
126	0x3d199cbe	0.037502997
127	0x3cffd0af	0.031227438
128	0x3e9b7fb0	0.30370855
129	0xbe7baaeb	-0.24576919
130	0xbe4f311a	-0.20233575
131	0xbea92bd4	-0.3304125
132	0x3dca54ec	0.09879479
133	0x3e94253b	0.28934655
134	0xbe3960e6	-0.1810337
135	0xbe3049dd	-0.17215677
136	0x3e7b4964	0.24539715
137	0xbdede9be	-0.116168484
138	0x3e162565	0.14662702
139	0xbe10acab	-0.14128368
140	0x3e85f451	0.2616296
141	0x3e9d7f51	0.30761197
142	0x3e0b8740	0.13625813
143	0xbeaf0b76	-0.34188432
144	0x3e8fea74	0.2810856
145	0x3e37dcdc	0.17955345
146	0x3e948702	0.29009253
147	0x3d7b45d2	0.061345883
148	0x3e50578c	0.20345896
149	0xbdeb76d2	-0.114972726
150	0x3e3d8e93	0.18511419
151	0x3de5ef7e	0.1122732
152	0xbd76b932	-0.06023521
153	0xbea7a0c4	-0.32739842
154	0x3dfeec62	0.1244743
155	0xbe9de750	-0.3084054
156	0xbd8a2347	-0.0674501
157	0xbe061fd1	-0.13098074
158	0x3ea48fd0	0.3214097
159	0x3e1b2a37	0.15152822
160	0x3e09a4b8	0.13441741
161	0xbac82e22	-0.0015272538
162	0x3dc417d7	0.095748596
163	0xbd391f09	-0.045195613
164	0xbe44fcef	-0.19237112
165	0x3ea28539	0.31742266
166	0x3e7215b6	0.23641095
167	0x3e5d5be9	0.21617092
168	0xbc221e0c	-0.009894859
169	0xbdc1c972	-0.09462251
170	0xbd6e8c08	-0.058239013
171	0x3e83ee4a	0.25767738
172	0x3d9ae343	0.07562878
173	0x3ccdb28b	0.02510955
174	0x3da5dd0d	0.08098803
175	0x3d7166c7	0.058935907
176	0xbe0fd7ee	-0.14047214
177	0xbe7f550b	-0.24934785
178	0x3e907a3e	0.28218263
179	0xbd48389c	-0.048882112
180	0x3c3c697e	0.011499761
181	0x3e88bd31	0.26706842
182	0xbe96ecbe	-0.29477495
183	0x3eb55a03	0.35420236
184	0x3e6a28e7	0.22867166
185	0x3dbe9bb5	0.093070425
186	0x3d3635b2	0.0444848
187	0x3d5ff836	0.05468007
188	0xbe4ab077	-0.19793878
189	0x3bf950d4	0.0076085124
190	0x3e312594	0.17299491
191	0x3d3ff180	0.04686117
192	0xbe5d92a7	-0.21637975
193	0x3d45d749	0.048301015
194	0x3d86023c	0.06543395
195	0x3ece8787	0.40337774
196	0xbe1effd2	-0.15527275
197	0x3e6ec5d3	0.23317651
198	0xbe1f3a51	-0.1554959
199	0xbde0ce21	-0.10976816
200	0xbd85e25c	-0.06537315
201	0x3de5c6ed	0.11219583
202	0xbe8d157b	-0.2755545
203	0x3eba4897	0.36383507
204	0x3e2c2b1d	0.16813321
205	0xbe450c37	-0.19242941
206	0x3eaa48e4	0.33258736
207	0xbe8ed33c	-0.27895534
208	0x3d72bbe3	0.059261214
209	0x3eaae0fc	0.33374774
210	0x3e18dba1	0.14927532
211	0xbd0fc2f8	-0.035098046
212	0xbe1500f8	-0.14551151
213	0xbdaee7a0	-0.08540273
214	0x3e7f4163	0.24927287
215	0x3e841576	0.25797623
216	0xbd92d513	-0.07169547
217	0x3e62d82f	0.2215278
218	0x3eaebc74	0.34128153
219	0x3e8d4823	0.27594098
220	0x3e3add1f	0.18248414
221	0x3d6439a6	0.05571904
222	0xbe874bd8	-0.26425052
223	0xbe9d6ed7	-0.30748627
224	0xbd7a31ba	-0.06108258
225	0xbdf18536	-0.11792986
226	0x3e0bd59a	0.13655701
227	0xbebc88fa	-0.36823255
228	0x3eb6bbf1	0.35690263
229	0xbeb82809	-0.35968044
230	0xbe379f50	-0.17931867
231	0x3ee7954c	0.45231092
232	0xbe839cfd	-0.2570571
233	0x3e838e68	0.25694585
234	0x3e1be6b7	0.1522473
235	0xbea12db1	-0.31480172
236	0x3e84bcc2	0.2592526
237	0x3df1d285	0.118077315
238	0x3d4a8b17	0.049449053
239	0x3df16a8c	0.117879
240	0x3df97a78	0.12181562
241	0x3e2088b2	0.15677145
242	0x3e41e719	0.18935813
243	0xbebd87c4	-0.37017643
244	0xbe8aaf9d	-0.27087107
245	0x3e1713ef	0.14753698
246	0x3d94e819	0.072708316
247	0x3e9fcd68	0.312114
248	0x3d817151	0.063204415
249	0xbe5a6ce8	-0.21330607
250	0x3e4bb0e8	0.19891703
251	0xbd37c8d8	-0.044869274
252	0xbeb6be4c	-0.3569206
253	0x3e0840c5	0.13305958
254	0xbd01086b	-0.03150217
255	0x3d8c17b9	0.06840462

resnet_blocks.1.fc2.bias f4 [25]
0	0xbd8a3a8e	-0.0674945
1	0x3d759ea0	0.05996573
2	0xbd3fdf82	-0.046844013
3	0xbcb17b47	-0.021665229
4	0x3deef84b	0.11668452
5	0xb9803ec8	-0.00024460838
6	0x3d081e64	0.033232108
7	0x3dffeac6	0.12495951
8	0x3ab8a80f	0.0014088171
9	0x3d2b9e87	0.04189923
10	0x3d77d09c	0.06050168
11	0x3e0a493c	0.13504499
12	0x3e243325	0.16035135
13	0x3d424b3d	0.047435034
14	0x3d3bdf6f	0.04586738
15	0xbb445dfc	-0.0029963246
16	0x3d849231	0.06473196
17	0xb8f9483a	-0.000118866985
18	0x3dcce779	0.100050874
19	0xbcd5ed95	-0.026114265
20	0x3da8c674	0.08240977
21	0x3cf489f3	0.029850936
22	0xbdde57e0	-0.108566046
23	0x3d25268f	0.040319975
24	0xbd97438d	-0.07385931

resnet_blocks.2.fc1.weight f4 [25, 25]
0	0xbe78e800	-0.24307251
1	0x3d32298c	0.043496653
2	0xbe6f043a	-0.23341456
3	0x3d6437a6	0.055717133
4	0x3e340617	0.17580448
5	0x3cc721e2	0.024308149
6	0x3de61fb0	0.11236513
7	0xbdc9c0d5	-0.09851233
8	0xbdb549b9	-0.08851952
9	0xbeacd708	-0.33757806
10	0x3da9dfe6	0.08294658
11	0xbea3d693	-0.31999645
12	0x3e7d07bd	0.24709983
13	0x3ea49120	0.32141972
14	0x3e842985	0.25812927
15	0xbe84bcef	-0.25925395
16	0x3e46a8dd	0.19400354
17	0x3de779cf	0.1130253
18	0x3ea0dabb	0.31416878
19	0x3d653b9a	0.055965044
20	0x3e9baaf1	0.30403855
21	0x3cd98fed	0.026557887
22	0x3dc02ea2	0.093838945
23	0xbe9b053a	-0.30277425
24	0xbd4643f3	-0.048404645
25	0xbe7a6498	-0.24452436
26	0x3e964786	0.29351443
27	0xbe988750	-0.29790735
28	0xbe8dd241	-0.27699474
29	0x3eacf183	0.3377801
30	0xbe16a5d8	-0.14711702
31	0xbccb422f	-0.024811832
32	0xbcd494cf	-0.025949864
33	0xbea27b70	-0.317348
34	0xbed45d4c	-0.4147743
35	0xbe65035f	-0.22364567
36	0x3ec8cd63	0.39219198
37	0x3e9c5a9f	0.30537888
38	0x3deafdb5	0.11474172
39	0x3ec719bb	0.38886818
40	0xbe31739e	-0.1732926
41	0x3e7c26e4	0.2462421
42	0xbe838e9a	-0.25694734
43	0x3e735f29	0.2376677
44	0xbe9fc2ce	-0.31203312
45	0x3e865036	0.2623307
46	0x3d3a32c4	0.04545857
47	0xbdfc3022	-0.12313868
48	0xbe079a37	-0.13242422
49	0xbdaa462f	-0.08314168
50	0x3d84bcc0	0.06481314
51	0x3ea3d558	0.31998706
52	0xbd510d91	-0.05103833
53	0xbe810ae7	-0.2520363
54	0x3e9f16fc	0.31072223
55	0x3d7fd0a8	0.06245485
56	0xbea5e128	-0.32398343
57	0x3e248e1f	0.1606984
58	0x3e86aa49	0.26301792
59	0xbe6a63e7	-0.22889672
60	0xbc7094a3	-0.014683875
61	0x3de2e3bb	0.110785924
62	0x3e605d67	0.2191063
63	0x3ea5f8ad	0.32416287
64	0xbe946d2e	-0.28989547
65	0xbe724f62	-0.23663095
66	0x3dd18372	0.10230149
67	0xbd63f98c	-0.05565791
68	0x3e28f463	0.16499476
69	0x3e0776df	0.1322894
70	0x3e164537	0.14674841
71	0x3df3ece0	0.11910415
72	0x3ec50b39	0.38485125
73	0x3e9ae721	0.30254462
74	0x3de711a8	0.112826645
75	0x3e9f9dfc	0.3117522
76	0x3d398e1e	0.04530155
77	0xbd5fdd66	-0.0546545
78	0xbe2a60e3	-0.16638522
79	0xbe535a24	-0.20639855
80	0xbae25d71	-0.0017270279
81	0xbe76e576	-0.2411097
82	0x3e6726a6	0.22573337
83	0x3e98effa	0.29870588
84	0x3d1dd001	0.038528446
85	0xbe81de9c	-0.2536515
86	0xbe2d1671	-0.16903092
87	0xbe8ff32f	-0.28115222
88	0xbe95fe33	-0.292955
89	0xbed1ac06	-0.40951556
90	0x3ea28b54	0.31746924
91	0xbeb60313	-0.3554922
92	0x3e92d840	0.2868061
93	0xbe4b51a1	-0.19855358
94	0x3ea9ad6d	0.33140126
95	0xbe89304e	-0.26794666
96	0x3d0b68c8	0.034035474
97	0xbde47a5e	-0.11156152
98	0x3e5b8ffc	0.21441644
99	0x3dbe82e7	0.093023114
100	0x3d4c8461	0.049930934
101	0x3eb2569f	0.34831712
102	0x3d8c95d2	0.068645135
103	0x3e07c7d9	0.1325983
104	0x3e777159	0.24164332
105	0xbdec1753	-0.11527886
106	0xbe1d381d	-0.15353437
107	0xbd4cab3b	-0.049967986
108	0x3d2443c9	0.040103707
109	0xbe9df2b7	-0.3084924
110	0xbcc11590	-0.023569852
111	0xbcb1b0a3	-0.021690672
112	0xbe93e666	-0.28886718
113	0x3ea8ef5e	0.32995123
114	0xbe574017	-0.21020542
115	0xbd89ed88	-0.067347586
116	0xbbe54d8b	-0.0069977692
117	0xbe6b4370	-0.22974944
118	0x3e0484ca	0.1294128
119	0x3e8d5906	0.27606982
120	0xbe118e2e	-0.14214393
121	0x3ea7a3c1	0.32742122
122	0x3d868f8f	0.065703504
123	0xbd203dca	-0.039121427
124	0xbea1a60c	-0.31571996
125	0xbe7fed07	-0.24992763
126	0xbecc6ded	-0.39927617
127	0xbe953cbe	-0.29147905
128	0x3e98a1ae	0.29810852
129	0x3d0219b1	0.031762782
130	0x3e2ada36	0.16684803
131	0x3df07e9c	0.11742899
132	0xbeec4ae1	-0.46150878
133	0xbdb6b4ca	-0.089212015
134	0xbec262e6	-0.3796608
135	0xbe9a11f3	-0.3009182
136	0x3e98af50	0.29821253
137	0xbec6ad18	-0.38803935
138	0xbd8d0d07	-0.068872504
139	0xbe9515f5	-0.29118314
140	0xbe8f2a51	-0.27961972
141	0xbdc2379a	-0.094832614
142	0xbea125e4	-0.3147422
143	0x3e78c925	0.2429548
144	0xbda7b582	-0.08188917
145	0xbe746860	-0.23867941
146	0xbe466fda	-0.19378605
147	0x3e03a736	0.12856755
148	0x3e3007f4	0.17190534
149	0x3dbd7de7	0.092525296
150	0x3d422100	0.047394753
151	0x3e2398a4	0.15976197
152	0x3ddc9cd3	0.10772099
153	0xbe20c4a9	-0.1570002
154	0x3bbd9a3f	0.00578621
155	0x3da2de37	0.0795254
156	0xbeaed91d	-0.3415002
157	0x3e70c676	0.23513207
158	0xbd591600	-0.052999496
159	0xbd684c6a	-0.0567135
160	0xbe3e6636	-0.18593678
161	0x3e955dfe	0.29173273
162	0x3d9ddfec	0.07708725
163	0xbd5ce427	-0.05392852
164	0x3ea5e40d	0.3240055
165	0xbe91a94d	-0.2844948
166	0x3dccd0a9	0.10000736
167	0x3e7b3d43	0.24535088
168	0x3ea96a8a	0.33089095
169	0x3dddeccc	0.10836181
170	0xbded6973	-0.115923785
171	0xbeae83bb	-0.34084877
172	0xbe81b58a	-0.25333816
173	0xbd6356bb	-0.055502634
174	0xbe85dd3e	-0.26145357
175	0xbe682afa	-0.22672644
176	0xbeb286c6	-0.3486845
177	0xbe7d7ee5	-0.24755438
178	0x3e25f2ec	0.16205949
179	0x3d437894	0.047722414
180	0xbdb6fc23	-0.0893481
181	0x3bedb3a8	0.0072540827
182	0xbcd43128	-0.025902346
183	0x3e464b8e	0.1936476
184	0x3e037a68	0.12839663
185	0x3ea063e1	0.31326202
186	0x3ddc85cf	0.107677095
187	0x3e87fa07	0.26557943
188	0x3dd35891	0.10319627
189	0x3e5cc851	0.2156079
190	0x3ea7c741	0.32769206
191	0x3da8bbc6	0.0823894
192	0xbe933946	-0.28754634
193	0xbe5be4e2	-0.2147403
194	0x3e84c33a	0.25930196
195	0xbe72cd9a	-0.23711243
196	0x3e5323cc	0.20619124
197	0x3ea9f7f6	0.33196992
198	0xbc2f9ef6	-0.010719052
199	0xbeaaaad7	-0.33333465
200	0xbd1c3ce4	-0.038144007
201	0xbd4362e6	-0.04770174
202	0x3e341207	0.17585002
203	0x3ea46d60	0.32114697
204	0x3dc4e9ed	0.0961493
205	0xbec702f2	-0.38869435
206	0xbe629376	-0.22126564
207	0xbe07fde2	-0.13280442
208	0xbd100039	-0.035156462
209	0xbdcf26c1	-0.101148136
210	0x3e2013fa	0.1563262
211	0x3d37f3a4	0.04491009
212	0xbdeb1560	-0.11478686
213	0x3e5dae44	0.21648508
214	0xbe9e4211	-0.3090978
215	0xbdf330fc	-0.118745774
216	0xbe09e30e	-0.1346552
217	0x3e153f78	0.14574993
218	0xbedee0df	-0.43530938
219	0xbe552ffb	-0.20819084
220	0x3dca6557	0.0988261
221	0xbe72d03e	-0.2371225
222	0xbe4ebb2f	-0.20188592
223	0x3e6947bd	0.22781272
224	0x3d9b8e56	0.07595508
225	0x3e3245cc	0.17409438
226	0xbdfb450b	-0.12269028
227	0xbc04b676	-0.008100143
228	0x3d99308a	0.07479961
229	0x3ea9c279	0.33156183
230	0x3d8e75e2	0.06956078
231	0xb8af1379	-8.348277e-05
232	0xbd146bde	-0.036235683
233	0xbea2362b	-0.31681952
234	0x3ccd0b96	0.025029939
235	0xbc085dd9	-0.008323156
236	0x3d25c5de	0.040471904
237	0xbe9618d2	-0.2931581
238	0x3da81348	0.082068026
239	0x3e424b13	0.18973951
240	0xbe5b025f	-0.21387623
241	0x3e8c4c70	0.27402067
242	0xbec64a00	-0.38728333
243	0xbdeaac00	-0.11458588
244	0xbd84cecb	-0.06484755
245	0x3ca035ed	0.019556964
246	0x3e1f719e	0.15570685
247	0x3e8aa92c	0.27082193
248	0xbe4ec17d	-0.20190997
249	0x3e1eb228	0.15497649
250	0x3dafe53b	0.08588644
251	0x3e494021	0.1965337
252	0xbe11415c	-0.14185089
253	0x3dca5029	0.098785706
254	0x3ea9caec	0.3316263
255	0xbe94637d	-0.28982154

resnet_blocks.2.fc1.bias f4 [25]
0	0x3d03d3e1	0.032184485
1	0x3d378d7c	0.044812664
2	0x3d8262ec	0.06366524
3	0xbcb16750	-0.021655709
4	0x3c8f37a0	0.017482579
5	0xbdbd732e	-0.092504844
6	0x3e1e07da	0.15432683
7	0x3cc6113a	0.024178136
8	0x3dabee37	0.08395045
9	0x3cb244b7	0.021761281
10	0x3d1496e9	0.03627673
11	0xbc9c143c	-0.019052617
12	0x3d2176fb	0.03942011
13	0x3e108b49	0.14115633
14	0xbb8f25c7	-0.004368517
15	0x3e2b3384	0.1671887
16	0xbce377f9	-0.027767168
17	0x3cfd6f0d	0.030936742
18	0x3db78ba1	0.08962179
19	0x3d87cc63	0.066307805
20	0x3d0024f9	0.03128526
21	0x3d386022	0.045013554
22	0xbc89820b	-0.016785642
23	0xbc4fcbf5	-0.0126829045
24	0xbd4408bb	-0.04785989

resnet_blocks.2.fc2.weight f4 [25, 25]
0	0xbe2c8889	-0.16848959
1	0xbed994ee	-0.42496437
2	0x3e94fee2	0.2910071
3	0xbe9fa3c9	-0.31179646
4	0xbe0457ef	-0.12924169
5	0x3df50382	0.1196356
6	0x3d4d9e4f	0.050199803
7	0x3d944429	0.07239563
8	0xbea15dd3	-0.31516895
9	0x3e105412	0.1409457
10	0x3e6fb9ac	0.23410672
11	0xbcfce9fe	-0.030873295
12	0xbe526ac7	-0.20548545
13	0x3e50ba3c	0.20383543
14	0xbe8f863f	-0.2803211
15	0xbe40b666	-0.1881958
16	0x3e637841	0.22213842
17	0x3de8ca0b	0.11366662
18	0x3e5eefe6	0.21771201
19	0xbe53256d	-0.20619746
20	0xbd667616	-0.05626496
21	0x3c26deae	0.010184927
22	0x3e882ba1	0.26595786
23	0x3c483e4d	0.012221885
24	0x3d7e797f	0.062127586
25	0x3e97a536	0.29618233
26	0x3e737436	0.237748
27	0x3df3d6b8	0.11906189
28	0xbe5e9839	-0.21737756
29	0x3df909a9	0.12160046
30	0xbd7b7666	-0.06139221
31	0xbdc2ec02	-0.09517671
32	0xbe41062e	-0.18850014
33	0x3e8b0b09	0.27156857
34	0xbeb7c9da	-0.35896188
35	0x3ea76eff	0.3270187
36	0x3e91ea4a	0.2849906
37	0x3c8db466	0.017297935
38	0xbe85388c	-0.26019704
39	0xbd014b44	-0.03156592
40	0x3dcaae44	0.0989652
41	0x3e451e42	0.19249824
42	0xbe2486b2	-0.16067007
43	0xbdd1ca45	-0.10243658
44	0x3dc4da1f	0.09611916
45	0x3ea77201	0.32704166
46	0xbe577c6e	-0.2104356
47	0x3d039271	0.03212208
48	0x3d49d3e6	0.049274348
49	0xbdfb4a91	-0.12270082
50	0xbe944339	-0.28957537
51	0xbe5486ec	-0.20754594
52	0xbe089faa	-0.13342157
53	0xbd89d18a	-0.067294195
54	0xbe5caada	-0.2154955
55	0x3ea7c788	0.32769418
56	0xbe8d9941	-0.27655986
57	0x3d1b64fc	0.037938103
58	0xbc487965	-0.012235974
59	0x3dbc2001	0.09185792
60	0x3ea43ed1	0.32079175
61	0x3e162a10	0.14664483
62	0xbe3425ed	-0.17592593
63	0x3cbb03ec	0.022829019
64	0xbe85491e	-0.26032346
65	0xbe2f9257	-0.17145668
66	0xbe921fc1	-0.2853985
67	0xbe9842f3	-0.29738578
68	0xbe54c0b3	-0.20776634
69	0x3e863c24	0.2621776
70	0xbea34fee	-0.3189692
71	0xbe598de4	-0.21245533
72	0x3e8f3aec	0.2797464
73	0x3e248166	0.16064987
74	0xbe804be9	-0.25057915
75	0x3e1ae848	0.15127671
76	0xbeadc031	-0.33935693
77	0x3c0cdafc	0.008597132
78	0xbd8aad11	-0.06771291
79	0xbde8527d	-0.113438584
80	0x3e198b98	0.14994657
81	0xbd48960a	-0.048971213
82	0xbdb8412e	-0.08996807
83	0x3e340c86	0.17582902
84	0xbe9f6493	-0.3113142
85	0x3e9b0844	0.30279744
86	0x3e8f3f33	0.27977905
87	0x3e7591e6	0.23981437
88	0xbe17f9a3	-0.14841323
89	0xbe895d23	-0.2682887
90	0xbea6263d	-0.32451048
91	0x3d3515d8	0.044210285
92	0x3e643f3e	0.2228975
93	0xbbc27165	-0.005933928
94	0xbe8263a1	-0.25466636
95	0xbeb03ec0	-0.34422874
96	0xbe71dcfb	-0.23619454
97	0xbe8b659b	-0.27225956
98	0x3d3d930a	0.046282806
99	0x3d08707e	0.033310406
100	0x3e908b31	0.28231195
101	0xbea1838f	-0.31545684
102	0x3e44cc46	0.19218549
103	0xbe953b6b	-0.29146895
104	0x3c70d261	0.014698596
105	0xbea249e3	-0.31696996
106	0x3e82ee2f	0.25572345
107	0xbdb8fbf0	-0.09032428
108	0x3eae676f	0.3406329
109	0x3d7fd2db	0.062456947
110	0x3de9898e	0.114031896
111	0x3c80ba49	0.015713828
112	0xbde4d1eb	-0.11172851
113	0x3ea662a4	0.32497132
114	0xbdd8513c	-0.10562369
115	0xbdad2c33	-0.08455696
116	0xbe0e605a	-0.13903943
117	0x3eb2bc0d	0.34909096
118	0xbddda784	-0.10822967
119	0xbe98cd1f	-0.29843995
120	0x3d9bb9bb	0.07603785
121	0x3dd2e93a	0.10298391
122	0x3e9d44b0	0.30716467
123	0x3ea9199c	0.3302735
124	0xbced8b14	-0.028996982
125	0x3e7a0139	0.24414529
126	0x3e4fca44	0.20292002
127	0xbd1522e0	-0.036410213
128	0x3d7f8830	0.062385738
129	0xbe392e25	-0.18084009
130	0x3d98b97d	0.07457254
131	0x3e9b132a	0.3028806
132	0x3d695275	0.056963403
133	0x3db40e0f	0.08791744
134	0xbe2c6024	-0.1683355
135	0xbe27329a	-0.16327897
136	0x3c2aff72	0.0104368795
137	0xbe9c8dad	-0.3057684
138	0x3ddfabb7	0.10921424
139	0xbe30d8c1	-0.17270185
140	0x3ec7d1a5	0.39027134
141	0xbdcdd82f	-0.100509994
142	0xbe889767	-0.2667801
143	0x3e8a62de	0.27028555
144	0x3e80a6b3	0.2512718
145	0xbe6594cb	-0.22420041
146	0x3dfee846	0.124466464
147	0x3e2b3e40	0.16722965
148	0x3db56d08	0.08858687
149	0x3e0af152	0.13568619
150	0x3e8b7a48	0.2724173
151	0xbe316f8a	-0.17327705
152	0xbd42a299	-0.047518346
153	0xbd9e2429	-0.07721741
154	0x3e2868a2	0.16446164
155	0x3d8ad57d	0.06779001
156	0x3e51be0a	0.2048265
157	0xbe3c05d5	-0.183616
158	0xbdaafe54	-0.083492905
159	0xbe17e7a1	-0.14834453
160	0xbc509722	-0.012731345
161	0xbe1be9f5	-0.15225966
162	0x3df05d64	0.11736563
163	0xbe44d9f2	-0.19223765
164	0xbc957697	-0.018245025
165	0x3e9f5e1c	0.31126487
166	0x3d6b59bc	0.057458624
167	0x3e067833	0.1313179
168	0x3e842d21	0.2581568
169	0xbe2b127a	-0.16706267
170	0x3ce6e4cf	0.028185276
171	0x3da9a397	0.082831554
172	0x3e905d22	0.28196055
173	0xbe9b4090	-0.30322695
174	0xbec7de43	-0.3903676
175	0x3de26062	0.1105354
176	0x3e5f82e6	0.21827278
177	0xbc809669	-0.015696721
178	0x3eb00a1a	0.34382707
179	0x3df07937	0.1174187
180	0x3d9713e1	0.073768385
181	0x3eafcd2a	0.34336215
182	0xbe52f9eb	-0.20603149
183	0xbda293d9	-0.07938356
184	0xbe83f7b4	-0.2577492
185	0xbd9393bd	-0.07205913
186	0x3d6391f8	0.05555913
187	0x3e1003aa	0.14063898
188	0xbe87bd29	-0.26511505
189	0xbe1f7b01	-0.15574266
190	0x3e845000	0.25842285
191	0x3e097e27	0.1342703
192	0xbde058f0	-0.109544635
193	0x3e1af134	0.15131074
194	0x3e811aef	0.2521586
195	0x3dcfd399	0.10147781
196	0x3e06b52d	0.1315505
197	0xbe2b9315	-0.16755326
198	0xbd9fa3c7	-0.0779491
199	0x3e826e02	0.25474554
200	0x3e9aca20	0.30232334
201	0xbb8ba7ee	-0.004261962
202	0xbe3754af	-0.17903398
203	0xbe85122d	-0.2599043
204	0x3db7fa5d	0.089833
205	0xbd027857	-0.031853046
206	0x3e2871f7	0.16449724
207	0xbccafcad	-0.024778688
208	0xbe4d131f	-0.20026825
209	0x3eaa46d8	0.33257174
210	0xbe07af69	-0.13250507
211	0xbe3d0dbf	-0.18462275
212	0x3e252b7a	0.16129866
213	0x3dbac634	0.091198355
214	0x3e260288	0.16211903
215	0xbddd2a99	-0.107991405
216	0x3eb9aad0	0.36263132
217	0x3a74586a	0.0009321036
218	0xbcc89d20	-0.024488986
219	0xbe847a2f	-0.2587447
220	0xbe9ca4b6	-0.30594414
221	0x3c01b563	0.007916781
222	0xbe951a06	-0.29121417
223	0x3e686680	0.2269535
224	0x3e931135	0.28724065
225	0x3e8bbea3	0.27293882
226	0x3e77d287	0.24201404
227	0x3d8a6f5e	0.06759523
228	0x3e9fc338	0.31203628
229	0x3dcd4a1d	0.100239016
230	0xbe972ee6	-0.29527968
231	0xbe9bc6ae	-0.30425018
232	0x3e2c87d7	0.16848694
233	0xbe21a829	-0.15786804
234	0x3e87a758	0.2649486
235	0xbea57dc1	-0.32322505
236	0x3e07fd5d	0.13280244
237	0xbe8cff2e	-0.27538437
238	0xbe7b77e2	-0.2455745
239	0xbd65de6d	-0.056120325
240	0x3e8e4fa2	0.2779513
241	0xbe8e75ba	-0.27824193
242	0x3e904946	0.28180903
243	0x3d7245da	0.059148647
244	0x3e17c570	0.1482141
245	0x3e55f806	0.20895395
246	0xbd5bab9e	-0.053630464
247	0x3defbde7	0.11706143
248	0x3e5d4d0a	0.2161142
249	0xbe0ad9cb	-0.13559644
250	0x3da29540	0.079386234
251	0xbd5cec51	-0.053936306
252	0x3dd14399	0.10217971
253	0x3caf1c42	0.021375779
254	0xbc5cef46	-0.013484782
255	0x3ea4c2b1	0.32179788

resnet_blocks.2.fc2.bias f4 [25]
0	0x3cc87ad1	0.024472626
1	0xbd919471	-0.07108391
2	0xbcecef6f	-0.028922765
3	0xbd3052e3	-0.043047797
4	0x3cb69aaf	0.022290556
5	0x3dc2a0b7	0.0950331
6	0x3d2ede0c	0.04269223
7	0x3caf6b40	0.021413445
8	0xbd00acac	-0.031414673
9	0xbc1ba2c2	-0.009499254
10	0x3d5d53c6	0.05403497
11	0x3d993bc4	0.074821025
12	0x3d0d17c7	0.034446504
13	0xbd22fd01	-0.039792065
14	0x3ce7a341	0.028276088
15	0x3d049ca7	0.032375958
16	0xbb07fde7	-0.0020750703
17	0x3cfb90d7	0.030708713
18	0x3da2f093	0.07956042
19	0x3dce5564	0.10074881
20	0x3d10dcf6	0.035366975
21	0x3d6a2a3f	0.057169195
22	0xbd1fe77d	-0.039039124
23	0xbcba637c	-0.022752516
24	0x3ce374a5	0.027765581
